…
changing with great margin every time. I am running the doc2vec_score function. Can someone please help me what is wrong here ?"
306,What to do when overfitting does not improve using regularization and droppout? [closed],"['python', 'machine-learning', 'deep-learning', 'nlp', 'lstm']","
Want to improve this question? Add details and clarify the problem by editing this post.
                Closed 21 days ago.I'm testing Conv, GRU, LSTM and simple Dense and I don't get 70 to 80%
My network converges very fast and overfits in the first seasons, could it be the data?lstm_46 (LSTM)               (None, 65, 32)            6272dropout_67 (Dropout)         (None, 65, 32)            0bidirectional_20 (Bidirectio (None, 65, 64)            16640dropout_68 (Dropout)         (None, 65, 64)            0lstm_48 (LSTM)               (None, 32)                12416dropout_69 (Dropout)         (None, 32)                0flatten_28 (Flatten)         (None, 32)                0dense_73 (Dense)             (None, 10)                330activation_72 (Activation)   (None, 10)                0dense_74 (Dense)             (None, 1)                 11Total params: 35,669
Trainable params: 35,669
Non-trainable params: 0"
307,How do I add a CNN layer before Bi-LSTM layer,"['python-3.x', 'keras', 'nlp', 'lstm', 'faster-rcnn']",I want to add a CNN layer with max-pooling before a Bi-LSTM layer for a sentiment classification task but I am getting an error.Here is the code I am using.This is the error I am getting
308,AttributeError while loading textHero library,"['python', 'text', 'nlp']",I am getting an error when importing textHeroError : AttributeError: module 'nltk' has no attribute 'data'I have installed textHero again but error did not get resolved.
…
1722,Extract relationship concepts from sentences,"['nlp', 'word2vec', 'word-embedding', 'information-extraction', 'relationship-extraction']","Is there a current model or how could I train a model that takes a sentence involving two subjects like: [Meiosis] is a type of [cell division]...and decides if one is the child or parent concept of the other? In this case, cell division is the parent of meiosis."
1723,keras loss and other custom mertic not being accurate,"['python', 'keras', 'deep-learning', 'word-embedding']","I have a standard Bidirectional LSTM model built with keras, nothing fancy, just a stack of layers:================================================================= embedding_1 (Embedding)      (None, 1697, 300)         9776100
  _________________________________________________________________ bidirectional_1 (Bidirection (None, 1697, 150)         225600
  _________________________________________________________________ bidirectional_2 (Bidirection (None, 1697, 60)          43440
  _________________________________________________________________ bidirectional_3 (Bidirection (None, 1697, 40)          12960
  _________________________________________________________________ last_blstm (Flatten)         (None, 67880)             0
  _________________________________________________________________ dense_1 (Dense)              (None, 5)                 339405My loss seems to be decreasing normally, but the same doesn't go for 11800/13500 [=========================>....] - ETA: 2:16 -loss: 107.6926 - acc: 0.2010
  12000/13500 [=========================>....] - ETA: 2:00 - loss: 106.0187 - acc: 0.2019
  12200/13500 [==========================>...] - ETA: 1:44 - loss: 104.4009 - acc: 0.2024
  12400/13500 [==========================>...] - ETA: 1:28 - loss: 102.8412 - acc: 0.2029
…
3344,"When I use TF-IDF in Natural language processing, it said list is not callable.Can you help me with it?","['python', 'nlp', 'tf-idf', 'tfidfvectorizer']","I got error like this :When I run these codes in python:P.S. I also tried to convert the xtrain to list with xtrain.tolist(), but it doesn't work for me either."
3345,How to reflect the same results as from sklearn's TfidfVectorizer?,"['python', 'machine-learning', 'scikit-learn', 'tf-idf']","I am trying to build the TfidfVectorizer from scratch and I have built almost the same vectorizer as sklearn's but I am not able to get the same tf-idf scores as TfidfVectorizer.Here is my code:output for the first line is (0, 0) 0.038461538461538464(0, 1) 0.038461538461538464(0, 2) 0.038461538461538464(0, 3) 0.05810867783715349(0, 4) 0.038461538461538464Whereas output from sklearn's TfIDFvectorizer is(0, 8)  0.38408524091481483(0, 6)  0.38408524091481483(0, 3)  0.38408524091481483(0, 2)  0.5802858236844359(0, 1)  0.46979138557992045can you tell me where I am getting it wrong? Thank you."
3346,How can I show percentage wise recommendation in TFIDF Algorithm?,"['python-3.x', 'machine-learning', 'tf-idf', 'recommendation-engine']",I have made one algorithm so now i want to find score of particular output that weather it is 70 % or 80 % match with output.Output is But I want this with a score likecan you help me out how i can find score and map with output.
…
my corpus has around 411 documents with avg of exact 276 words.
is this time normal if not than how can i make this process fast.first i'm tokenizing after that i'm removing stopwards and steming the words and than finally using tf-idf vectorizer.Below is the code i am using"
3366,having problem to understand the group balanced binary tree for ranked keyword search,"['binary-tree', 'binary-search-tree', 'tf-idf', 'relevance', 'binary-index-tree']","the thing i didn't understand is how to calculate the relevance score and put the value in the queue of the tree nodes here in tree picture i didn't understand is how they calculate the results for f(1,1) ,f(1,2) , f(1,3) , f(3,2) , f(3,1) , f(2,1) ]2]3"
3367,"tfidf first time, using it on a Pandas series that has a list per entry","['scikit-learn', 'tf-idf']","Data looks like this :I got this by stemming and lemmatizing the sentence and tokenizing before that. ( Hope that is right).Now I want to use:It gives me the following error :I know that I somehow cannot use it on the list, so what is my play here, trying to return the list into a string again?"
…
esult by computing similarity between two matrix. And I tried LSI, but it is the corpus I want to rank not the cluster documents which forces me to find the centroid representative of the cluster."
3641,Confused with the return result of TfidfVectorizer.fit_transform,"['python', 'scikit-learn', 'nlp', 'tf-idf', 'tfidfvectorizer']","I wanted to learn more about NLP. I came across this piece of code. But I was confused about the outcome of TfidfVectorizer.fit_transform when the result is printed. I am familiar with what tfidf is but I could not understand what the numbers mean.And the output is:(0, 630)  0.37172623140154337   (0, 160)  0.36805562944957004   (0,
38)   0.3613966215413548   (0, 545)   0.2561101665717327   (0,
326)  0.2645280991765623   (0, 967)   0.3277447602873963   (0,
421)  0.3896274380321477   (0, 227)   0.28102915589024796   (0,
323)  0.22032541100275282   (0, 922)  0.2709848154866997   (1,
577)  0.4007895093299793   (1, 425)   0.5970064521899725   (1,
943)  0.6310763941180291   (1, 878)   0.29102173465492637   (2,
282)  0.1771481430848552   (2, 243)   0.5517018054305785   (2,
955)  0.2920174942032025   (2, 138)   0.30143666813167863   (2,
946)  0.2269933441326121   (2, 165)   0.3051095293405041   (2,
268)  0.2820392223588522   (2, 780)   0.24119626642264894   (2,
823)  0.1890454397278538   (2, 674)   0.256251970757827   (2,
874)  0.19343834015314287   : :   (5569, 648) 0.24171652492226922
(5569, 123)   0.23011909339432202   (5569, 957)   0.24817919217662862
(5569, 549)   0.28583789844730134   (5569, 863)   0.3026729783085827
(5569, 844)   0.20228305447951195   (5569, 146)   0.2514415602877767
(5569, 595)   0.2463259875380789   (5569, 511)    0.3091904754885042
(5569, 230)   0.2872728684768659   (5569, 638)    0.34151390143548765
(5569, 83)    0.3464271621701711   (5570, 370)    0.4199910200421362
(5570, 46)    0.48234172093857797   (5570, 317)   0.4171646676697801
(5570, 281)   0.6456993475093024   (5572, 282)    0.25540827228532487
(5572, 385)   0.36945842040023935   (5572, 448)   0.25540827228532487
(5572, 931)   0.3031800542518209   (5572, 192)    0.29866989620926737
(5572, 303)   0.43990016711221736   (5572, 87)    0.45211284173737176
(5572, 332)   0.3924202767503492   (5573, 866)    1.0I would be more than happy if someone can explain about the output."
3642,clustering twitter users with python,"['python', 'cluster-analysis', 'k-means', 'tf-idf', 'tfidfvectorizer']","i found this code on git-hub (https://github.com/bonzanini/Book-SocialMediaMiningPython/blob/master/Chap02-03/twitter_cluster_users.py) to clustering user profiles according to their bios on twitter with k-means. i have a .jsonl file with lines in this format :but i need to know user names with bios while print clustering.How can i do that? 
…
